Model: "sequential_130"
_________________________________________________________________
Layer (type)                 Output Shape              Param #   
=================================================================
conv1d_260 (Conv1D)          (None, 148, 30)           570       
_________________________________________________________________
conv1d_261 (Conv1D)          (None, 146, 12)           1092      
_________________________________________________________________
dropout_130 (Dropout)        (None, 146, 12)           0         
_________________________________________________________________
max_pooling1d_130 (MaxPoolin (None, 73, 12)            0         
_________________________________________________________________
flatten_130 (Flatten)        (None, 876)               0         
_________________________________________________________________
dense_130 (Dense)            (None, 2)                 1754      
=================================================================
Total params: 3,416
Trainable params: 3,416
Non-trainable params: 0
_________________________________________________________________
[0.00186815 0.9981318 ]          ==     [0. 1.]
[9.9993491e-01 6.5035856e-05]          ==     [1. 0.]
[1.6892489e-05 9.9998307e-01]          ==     [0. 1.]
[4.7569175e-04 9.9952435e-01]          ==     [0. 1.]
…
