Model: "sequential_125"
_________________________________________________________________
Layer (type)                 Output Shape              Param #   
=================================================================
conv1d_250 (Conv1D)          (None, 148, 30)           570       
_________________________________________________________________
conv1d_251 (Conv1D)          (None, 146, 24)           2184      
_________________________________________________________________
dropout_125 (Dropout)        (None, 146, 24)           0         
_________________________________________________________________
max_pooling1d_125 (MaxPoolin (None, 73, 24)            0         
_________________________________________________________________
flatten_125 (Flatten)        (None, 1752)              0         
_________________________________________________________________
dense_125 (Dense)            (None, 2)                 3506      
=================================================================
Total params: 6,260
Trainable params: 6,260
Non-trainable params: 0
_________________________________________________________________
[0.0025102 0.9974898]          ==     [0. 1.]
[0.9960377  0.00396226]          ==     [1. 0.]
[1.1720779e-04 9.9988282e-01]          ==     [0. 1.]
[0.0019278  0.99807215]          ==     [0. 1.]
…
