Model: "sequential_108"
_________________________________________________________________
Layer (type)                 Output Shape              Param #   
=================================================================
conv1d_216 (Conv1D)          (None, 148, 30)           570       
_________________________________________________________________
conv1d_217 (Conv1D)          (None, 146, 48)           4368      
_________________________________________________________________
dropout_108 (Dropout)        (None, 146, 48)           0         
_________________________________________________________________
max_pooling1d_108 (MaxPoolin (None, 73, 48)            0         
_________________________________________________________________
flatten_108 (Flatten)        (None, 3504)              0         
_________________________________________________________________
dense_108 (Dense)            (None, 2)                 7010      
=================================================================
Total params: 11,948
Trainable params: 11,948
Non-trainable params: 0
_________________________________________________________________
[0.01351869 0.9864813 ]          ==     [0. 1.]
[0.9980849  0.00191516]          ==     [1. 0.]
[0.00349057 0.9965094 ]          ==     [0. 1.]
[0.00502933 0.99497074]          ==     [0. 1.]
…
