Model: "sequential_154"
_________________________________________________________________
Layer (type)                 Output Shape              Param #   
=================================================================
conv1d_308 (Conv1D)          (None, 148, 18)           342       
_________________________________________________________________
conv1d_309 (Conv1D)          (None, 146, 36)           1980      
_________________________________________________________________
dropout_154 (Dropout)        (None, 146, 36)           0         
_________________________________________________________________
max_pooling1d_154 (MaxPoolin (None, 73, 36)            0         
_________________________________________________________________
flatten_154 (Flatten)        (None, 2628)              0         
_________________________________________________________________
dense_154 (Dense)            (None, 2)                 5258      
=================================================================
Total params: 7,580
Trainable params: 7,580
Non-trainable params: 0
_________________________________________________________________
[0.00179659 0.9982034 ]          ==     [0. 1.]
[9.9971265e-01 2.8736074e-04]          ==     [1. 0.]
[3.144680e-05 9.999685e-01]          ==     [0. 1.]
[4.9217156e-04 9.9950778e-01]          ==     [0. 1.]
…
