Model: "sequential_159"
_________________________________________________________________
Layer (type)                 Output Shape              Param #   
=================================================================
conv1d_318 (Conv1D)          (None, 148, 18)           342       
_________________________________________________________________
conv1d_319 (Conv1D)          (None, 146, 24)           1320      
_________________________________________________________________
dropout_159 (Dropout)        (None, 146, 24)           0         
_________________________________________________________________
max_pooling1d_159 (MaxPoolin (None, 73, 24)            0         
_________________________________________________________________
flatten_159 (Flatten)        (None, 1752)              0         
_________________________________________________________________
dense_159 (Dense)            (None, 2)                 3506      
=================================================================
Total params: 5,168
Trainable params: 5,168
Non-trainable params: 0
_________________________________________________________________
[1.5677174e-04 9.9984324e-01]          ==     [0. 1.]
[9.9999988e-01 1.2255694e-07]          ==     [1. 0.]
[2.3458952e-06 9.9999762e-01]          ==     [0. 1.]
[1.2695960e-04 9.9987304e-01]          ==     [0. 1.]
…
