Model: "sequential_42"
_________________________________________________________________
Layer (type)                 Output Shape              Param #   
=================================================================
conv1d_84 (Conv1D)           (None, 148, 48)           912       
_________________________________________________________________
conv1d_85 (Conv1D)           (None, 146, 36)           5220      
_________________________________________________________________
dropout_42 (Dropout)         (None, 146, 36)           0         
_________________________________________________________________
max_pooling1d_42 (MaxPooling (None, 73, 36)            0         
_________________________________________________________________
flatten_42 (Flatten)         (None, 2628)              0         
_________________________________________________________________
dense_42 (Dense)             (None, 2)                 5258      
=================================================================
Total params: 11,390
Trainable params: 11,390
Non-trainable params: 0
_________________________________________________________________
[6.645909e-05 9.999335e-01]          ==     [0. 1.]
[9.9995625e-01 4.3761407e-05]          ==     [1. 0.]
[7.7806061e-07 9.9999917e-01]          ==     [0. 1.]
[5.3236884e-04 9.9946767e-01]          ==     [0. 1.]
…
