Model: "sequential_101"
_________________________________________________________________
Layer (type)                 Output Shape              Param #   
=================================================================
conv1d_202 (Conv1D)          (None, 148, 36)           684       
_________________________________________________________________
conv1d_203 (Conv1D)          (None, 146, 24)           2616      
_________________________________________________________________
dropout_101 (Dropout)        (None, 146, 24)           0         
_________________________________________________________________
max_pooling1d_101 (MaxPoolin (None, 73, 24)            0         
_________________________________________________________________
flatten_101 (Flatten)        (None, 1752)              0         
_________________________________________________________________
dense_101 (Dense)            (None, 2)                 3506      
=================================================================
Total params: 6,806
Trainable params: 6,806
Non-trainable params: 0
_________________________________________________________________
[0.0012993  0.99870074]          ==     [0. 1.]
[9.9939263e-01 6.0730876e-04]          ==     [1. 0.]
[7.6548138e-05 9.9992347e-01]          ==     [0. 1.]
[0.00436387 0.99563617]          ==     [0. 1.]
…
