Model: "sequential_157"
_________________________________________________________________
Layer (type)                 Output Shape              Param #   
=================================================================
conv1d_314 (Conv1D)          (None, 148, 18)           342       
_________________________________________________________________
conv1d_315 (Conv1D)          (None, 146, 30)           1650      
_________________________________________________________________
dropout_157 (Dropout)        (None, 146, 30)           0         
_________________________________________________________________
max_pooling1d_157 (MaxPoolin (None, 73, 30)            0         
_________________________________________________________________
flatten_157 (Flatten)        (None, 2190)              0         
_________________________________________________________________
dense_157 (Dense)            (None, 2)                 4382      
=================================================================
Total params: 6,374
Trainable params: 6,374
Non-trainable params: 0
_________________________________________________________________
[1.2649641e-04 9.9987352e-01]          ==     [0. 1.]
[9.999937e-01 6.286928e-06]          ==     [1. 0.]
[1.2956341e-06 9.9999869e-01]          ==     [0. 1.]
[5.221793e-04 9.994778e-01]          ==     [0. 1.]
…
