Model: "sequential_163"
_________________________________________________________________
Layer (type)                 Output Shape              Param #   
=================================================================
conv1d_326 (Conv1D)          (None, 148, 18)           342       
_________________________________________________________________
conv1d_327 (Conv1D)          (None, 146, 12)           660       
_________________________________________________________________
dropout_163 (Dropout)        (None, 146, 12)           0         
_________________________________________________________________
max_pooling1d_163 (MaxPoolin (None, 73, 12)            0         
_________________________________________________________________
flatten_163 (Flatten)        (None, 876)               0         
_________________________________________________________________
dense_163 (Dense)            (None, 2)                 1754      
=================================================================
Total params: 2,756
Trainable params: 2,756
Non-trainable params: 0
_________________________________________________________________
[2.6647025e-04 9.9973351e-01]          ==     [0. 1.]
[0.9975074  0.00249258]          ==     [1. 0.]
[1.8443789e-05 9.9998152e-01]          ==     [0. 1.]
[2.0795486e-04 9.9979204e-01]          ==     [0. 1.]
…
