Model: "sequential_143"
_________________________________________________________________
Layer (type)                 Output Shape              Param #   
=================================================================
conv1d_286 (Conv1D)          (None, 148, 24)           456       
_________________________________________________________________
conv1d_287 (Conv1D)          (None, 146, 24)           1752      
_________________________________________________________________
dropout_143 (Dropout)        (None, 146, 24)           0         
_________________________________________________________________
max_pooling1d_143 (MaxPoolin (None, 73, 24)            0         
_________________________________________________________________
flatten_143 (Flatten)        (None, 1752)              0         
_________________________________________________________________
dense_143 (Dense)            (None, 2)                 3506      
=================================================================
Total params: 5,714
Trainable params: 5,714
Non-trainable params: 0
_________________________________________________________________
[3.364036e-04 9.996636e-01]          ==     [0. 1.]
[9.9995935e-01 4.0598134e-05]          ==     [1. 0.]
[9.888973e-06 9.999901e-01]          ==     [0. 1.]
[1.0099754e-07 9.9999988e-01]          ==     [0. 1.]
…
