Model: "sequential_144"
_________________________________________________________________
Layer (type)                 Output Shape              Param #   
=================================================================
conv1d_288 (Conv1D)          (None, 148, 24)           456       
_________________________________________________________________
conv1d_289 (Conv1D)          (None, 146, 18)           1314      
_________________________________________________________________
dropout_144 (Dropout)        (None, 146, 18)           0         
_________________________________________________________________
max_pooling1d_144 (MaxPoolin (None, 73, 18)            0         
_________________________________________________________________
flatten_144 (Flatten)        (None, 1314)              0         
_________________________________________________________________
dense_144 (Dense)            (None, 2)                 2630      
=================================================================
Total params: 4,400
Trainable params: 4,400
Non-trainable params: 0
_________________________________________________________________
[1.5486759e-04 9.9984515e-01]          ==     [0. 1.]
[9.9995947e-01 4.0497140e-05]          ==     [1. 0.]
[3.7756448e-07 9.9999964e-01]          ==     [0. 1.]
[2.3982723e-04 9.9976021e-01]          ==     [0. 1.]
…
