Model: "sequential_85"
_________________________________________________________________
Layer (type)                 Output Shape              Param #   
=================================================================
conv1d_170 (Conv1D)          (None, 148, 42)           798       
_________________________________________________________________
conv1d_171 (Conv1D)          (None, 146, 12)           1524      
_________________________________________________________________
dropout_85 (Dropout)         (None, 146, 12)           0         
_________________________________________________________________
max_pooling1d_85 (MaxPooling (None, 73, 12)            0         
_________________________________________________________________
flatten_85 (Flatten)         (None, 876)               0         
_________________________________________________________________
dense_85 (Dense)             (None, 2)                 1754      
=================================================================
Total params: 4,076
Trainable params: 4,076
Non-trainable params: 0
_________________________________________________________________
[3.4352130e-04 9.9965644e-01]          ==     [0. 1.]
[9.9999869e-01 1.3606673e-06]          ==     [1. 0.]
[1.3635974e-05 9.9998641e-01]          ==     [0. 1.]
[0.00296839 0.99703157]          ==     [0. 1.]
…
