Model: "sequential_187"
_________________________________________________________________
Layer (type)                 Output Shape              Param #   
=================================================================
conv1d_374 (Conv1D)          (None, 148, 12)           228       
_________________________________________________________________
conv1d_375 (Conv1D)          (None, 146, 12)           444       
_________________________________________________________________
dropout_187 (Dropout)        (None, 146, 12)           0         
_________________________________________________________________
max_pooling1d_187 (MaxPoolin (None, 73, 12)            0         
_________________________________________________________________
flatten_187 (Flatten)        (None, 876)               0         
_________________________________________________________________
dense_187 (Dense)            (None, 2)                 1754      
=================================================================
Total params: 2,426
Trainable params: 2,426
Non-trainable params: 0
_________________________________________________________________
[0.00376477 0.9962352 ]          ==     [0. 1.]
[9.999213e-01 7.864251e-05]          ==     [1. 0.]
[0.00206913 0.9979309 ]          ==     [0. 1.]
[0.00213452 0.9978655 ]          ==     [0. 1.]
…
