Model: "sequential_127"
_________________________________________________________________
Layer (type)                 Output Shape              Param #   
=================================================================
conv1d_254 (Conv1D)          (None, 148, 30)           570       
_________________________________________________________________
conv1d_255 (Conv1D)          (None, 146, 18)           1638      
_________________________________________________________________
dropout_127 (Dropout)        (None, 146, 18)           0         
_________________________________________________________________
max_pooling1d_127 (MaxPoolin (None, 73, 18)            0         
_________________________________________________________________
flatten_127 (Flatten)        (None, 1314)              0         
_________________________________________________________________
dense_127 (Dense)            (None, 2)                 2630      
=================================================================
Total params: 4,838
Trainable params: 4,838
Non-trainable params: 0
_________________________________________________________________
[0.00317679 0.9968232 ]          ==     [0. 1.]
[9.9999964e-01 3.6897160e-07]          ==     [1. 0.]
[2.3373235e-05 9.9997663e-01]          ==     [0. 1.]
[0.03300424 0.9669958 ]          ==     [0. 1.]
…
