Model: "sequential_112"
_________________________________________________________________
Layer (type)                 Output Shape              Param #   
=================================================================
conv1d_224 (Conv1D)          (None, 148, 30)           570       
_________________________________________________________________
conv1d_225 (Conv1D)          (None, 146, 42)           3822      
_________________________________________________________________
dropout_112 (Dropout)        (None, 146, 42)           0         
_________________________________________________________________
max_pooling1d_112 (MaxPoolin (None, 73, 42)            0         
_________________________________________________________________
flatten_112 (Flatten)        (None, 3066)              0         
_________________________________________________________________
dense_112 (Dense)            (None, 2)                 6134      
=================================================================
Total params: 10,526
Trainable params: 10,526
Non-trainable params: 0
_________________________________________________________________
[0.00453412 0.9954659 ]          ==     [0. 1.]
[9.9985123e-01 1.4880669e-04]          ==     [1. 0.]
[1.5857755e-04 9.9984145e-01]          ==     [0. 1.]
[0.00296901 0.997031  ]          ==     [0. 1.]
…
