Model: "sequential_171"
_________________________________________________________________
Layer (type)                 Output Shape              Param #   
=================================================================
conv1d_342 (Conv1D)          (None, 148, 12)           228       
_________________________________________________________________
conv1d_343 (Conv1D)          (None, 146, 42)           1554      
_________________________________________________________________
dropout_171 (Dropout)        (None, 146, 42)           0         
_________________________________________________________________
max_pooling1d_171 (MaxPoolin (None, 73, 42)            0         
_________________________________________________________________
flatten_171 (Flatten)        (None, 3066)              0         
_________________________________________________________________
dense_171 (Dense)            (None, 2)                 6134      
=================================================================
Total params: 7,916
Trainable params: 7,916
Non-trainable params: 0
_________________________________________________________________
[1.8810407e-04 9.9981195e-01]          ==     [0. 1.]
[9.9998736e-01 1.2668219e-05]          ==     [1. 0.]
[1.349647e-07 9.999999e-01]          ==     [0. 1.]
[2.0724662e-04 9.9979275e-01]          ==     [0. 1.]
…
