Model: "sequential_173"
_________________________________________________________________
Layer (type)                 Output Shape              Param #   
=================================================================
conv1d_346 (Conv1D)          (None, 148, 12)           228       
_________________________________________________________________
conv1d_347 (Conv1D)          (None, 146, 36)           1332      
_________________________________________________________________
dropout_173 (Dropout)        (None, 146, 36)           0         
_________________________________________________________________
max_pooling1d_173 (MaxPoolin (None, 73, 36)            0         
_________________________________________________________________
flatten_173 (Flatten)        (None, 2628)              0         
_________________________________________________________________
dense_173 (Dense)            (None, 2)                 5258      
=================================================================
Total params: 6,818
Trainable params: 6,818
Non-trainable params: 0
_________________________________________________________________
[5.4281034e-05 9.9994576e-01]          ==     [0. 1.]
[9.9999821e-01 1.8192005e-06]          ==     [1. 0.]
[4.7980627e-08 1.0000000e+00]          ==     [0. 1.]
[1.1105463e-04 9.9988890e-01]          ==     [0. 1.]
…
