Model: "sequential_38"
_________________________________________________________________
Layer (type)                 Output Shape              Param #   
=================================================================
conv1d_76 (Conv1D)           (None, 148, 48)           912       
_________________________________________________________________
conv1d_77 (Conv1D)           (None, 146, 48)           6960      
_________________________________________________________________
dropout_38 (Dropout)         (None, 146, 48)           0         
_________________________________________________________________
max_pooling1d_38 (MaxPooling (None, 73, 48)            0         
_________________________________________________________________
flatten_38 (Flatten)         (None, 3504)              0         
_________________________________________________________________
dense_38 (Dense)             (None, 2)                 7010      
=================================================================
Total params: 14,882
Trainable params: 14,882
Non-trainable params: 0
_________________________________________________________________
[4.168504e-04 9.995832e-01]          ==     [0. 1.]
[0.977135   0.02286508]          ==     [1. 0.]
[1.4419214e-05 9.9998558e-01]          ==     [0. 1.]
[7.3008596e-05 9.9992704e-01]          ==     [0. 1.]
…
