Model: "sequential_78"
_________________________________________________________________
Layer (type)                 Output Shape              Param #   
=================================================================
conv1d_156 (Conv1D)          (None, 148, 42)           798       
_________________________________________________________________
conv1d_157 (Conv1D)          (None, 146, 36)           4572      
_________________________________________________________________
dropout_78 (Dropout)         (None, 146, 36)           0         
_________________________________________________________________
max_pooling1d_78 (MaxPooling (None, 73, 36)            0         
_________________________________________________________________
flatten_78 (Flatten)         (None, 2628)              0         
_________________________________________________________________
dense_78 (Dense)             (None, 2)                 5258      
=================================================================
Total params: 10,628
Trainable params: 10,628
Non-trainable params: 0
_________________________________________________________________
[6.8169850e-04 9.9931836e-01]          ==     [0. 1.]
[9.999324e-01 6.763893e-05]          ==     [1. 0.]
[8.767122e-06 9.999912e-01]          ==     [0. 1.]
[1.6394329e-04 9.9983609e-01]          ==     [0. 1.]
…
