Model: "sequential_103"
_________________________________________________________________
Layer (type)                 Output Shape              Param #   
=================================================================
conv1d_206 (Conv1D)          (None, 148, 36)           684       
_________________________________________________________________
conv1d_207 (Conv1D)          (None, 146, 18)           1962      
_________________________________________________________________
dropout_103 (Dropout)        (None, 146, 18)           0         
_________________________________________________________________
max_pooling1d_103 (MaxPoolin (None, 73, 18)            0         
_________________________________________________________________
flatten_103 (Flatten)        (None, 1314)              0         
_________________________________________________________________
dense_103 (Dense)            (None, 2)                 2630      
=================================================================
Total params: 5,276
Trainable params: 5,276
Non-trainable params: 0
_________________________________________________________________
[0.00248392 0.99751604]          ==     [0. 1.]
[9.9999976e-01 1.7986221e-07]          ==     [1. 0.]
[1.1280898e-05 9.9998868e-01]          ==     [0. 1.]
[0.01819298 0.981807  ]          ==     [0. 1.]
…
