Model: "sequential_87"
_________________________________________________________________
Layer (type)                 Output Shape              Param #   
=================================================================
conv1d_174 (Conv1D)          (None, 148, 36)           684       
_________________________________________________________________
conv1d_175 (Conv1D)          (None, 146, 48)           5232      
_________________________________________________________________
dropout_87 (Dropout)         (None, 146, 48)           0         
_________________________________________________________________
max_pooling1d_87 (MaxPooling (None, 73, 48)            0         
_________________________________________________________________
flatten_87 (Flatten)         (None, 3504)              0         
_________________________________________________________________
dense_87 (Dense)             (None, 2)                 7010      
=================================================================
Total params: 12,926
Trainable params: 12,926
Non-trainable params: 0
_________________________________________________________________
[0.00900587 0.99099416]          ==     [0. 1.]
[9.9999356e-01 6.3898005e-06]          ==     [1. 0.]
[3.3973997e-06 9.9999666e-01]          ==     [0. 1.]
[3.2980918e-04 9.9967015e-01]          ==     [0. 1.]
…
