Model: "sequential_73"
_________________________________________________________________
Layer (type)                 Output Shape              Param #   
=================================================================
conv1d_146 (Conv1D)          (None, 148, 42)           798       
_________________________________________________________________
conv1d_147 (Conv1D)          (None, 146, 48)           6096      
_________________________________________________________________
dropout_73 (Dropout)         (None, 146, 48)           0         
_________________________________________________________________
max_pooling1d_73 (MaxPooling (None, 73, 48)            0         
_________________________________________________________________
flatten_73 (Flatten)         (None, 3504)              0         
_________________________________________________________________
dense_73 (Dense)             (None, 2)                 7010      
=================================================================
Total params: 13,904
Trainable params: 13,904
Non-trainable params: 0
_________________________________________________________________
[3.4939544e-04 9.9965060e-01]          ==     [0. 1.]
[0.9928778  0.00712221]          ==     [1. 0.]
[4.8118195e-06 9.9999523e-01]          ==     [0. 1.]
[2.1784373e-04 9.9978215e-01]          ==     [0. 1.]
…
