Model: "sequential_142"
_________________________________________________________________
Layer (type)                 Output Shape              Param #   
=================================================================
conv1d_284 (Conv1D)          (None, 148, 24)           456       
_________________________________________________________________
conv1d_285 (Conv1D)          (None, 146, 30)           2190      
_________________________________________________________________
dropout_142 (Dropout)        (None, 146, 30)           0         
_________________________________________________________________
max_pooling1d_142 (MaxPoolin (None, 73, 30)            0         
_________________________________________________________________
flatten_142 (Flatten)        (None, 2190)              0         
_________________________________________________________________
dense_142 (Dense)            (None, 2)                 4382      
=================================================================
Total params: 7,028
Trainable params: 7,028
Non-trainable params: 0
_________________________________________________________________
[0.00446503 0.995535  ]          ==     [0. 1.]
[9.9999952e-01 4.6729195e-07]          ==     [1. 0.]
[2.6956286e-06 9.9999726e-01]          ==     [0. 1.]
[7.241921e-05 9.999275e-01]          ==     [0. 1.]
…
