Model: "sequential_119"
_________________________________________________________________
Layer (type)                 Output Shape              Param #   
=================================================================
conv1d_238 (Conv1D)          (None, 148, 30)           570       
_________________________________________________________________
conv1d_239 (Conv1D)          (None, 146, 30)           2730      
_________________________________________________________________
dropout_119 (Dropout)        (None, 146, 30)           0         
_________________________________________________________________
max_pooling1d_119 (MaxPoolin (None, 73, 30)            0         
_________________________________________________________________
flatten_119 (Flatten)        (None, 2190)              0         
_________________________________________________________________
dense_119 (Dense)            (None, 2)                 4382      
=================================================================
Total params: 7,682
Trainable params: 7,682
Non-trainable params: 0
_________________________________________________________________
[0.00318253 0.99681747]          ==     [0. 1.]
[9.9987078e-01 1.2920913e-04]          ==     [1. 0.]
[2.0223109e-05 9.9997973e-01]          ==     [0. 1.]
[0.00303429 0.9969657 ]          ==     [0. 1.]
…
