Model: "sequential_139"
_________________________________________________________________
Layer (type)                 Output Shape              Param #   
=================================================================
conv1d_278 (Conv1D)          (None, 148, 24)           456       
_________________________________________________________________
conv1d_279 (Conv1D)          (None, 146, 36)           2628      
_________________________________________________________________
dropout_139 (Dropout)        (None, 146, 36)           0         
_________________________________________________________________
max_pooling1d_139 (MaxPoolin (None, 73, 36)            0         
_________________________________________________________________
flatten_139 (Flatten)        (None, 2628)              0         
_________________________________________________________________
dense_139 (Dense)            (None, 2)                 5258      
=================================================================
Total params: 8,342
Trainable params: 8,342
Non-trainable params: 0
_________________________________________________________________
[6.823534e-05 9.999318e-01]          ==     [0. 1.]
[9.999957e-01 4.243940e-06]          ==     [1. 0.]
[1.2917458e-05 9.9998713e-01]          ==     [0. 1.]
[3.9025712e-05 9.9996102e-01]          ==     [0. 1.]
…
