Model: "sequential_104"
_________________________________________________________________
Layer (type)                 Output Shape              Param #   
=================================================================
conv1d_208 (Conv1D)          (None, 148, 36)           684       
_________________________________________________________________
conv1d_209 (Conv1D)          (None, 146, 12)           1308      
_________________________________________________________________
dropout_104 (Dropout)        (None, 146, 12)           0         
_________________________________________________________________
max_pooling1d_104 (MaxPoolin (None, 73, 12)            0         
_________________________________________________________________
flatten_104 (Flatten)        (None, 876)               0         
_________________________________________________________________
dense_104 (Dense)            (None, 2)                 1754      
=================================================================
Total params: 3,746
Trainable params: 3,746
Non-trainable params: 0
_________________________________________________________________
[0.00321189 0.99678814]          ==     [0. 1.]
[9.9994028e-01 5.9682796e-05]          ==     [1. 0.]
[6.4294919e-04 9.9935704e-01]          ==     [0. 1.]
[0.00149036 0.9985096 ]          ==     [0. 1.]
…
