Model: "sequential_137"
_________________________________________________________________
Layer (type)                 Output Shape              Param #   
=================================================================
conv1d_274 (Conv1D)          (None, 148, 24)           456       
_________________________________________________________________
conv1d_275 (Conv1D)          (None, 146, 42)           3066      
_________________________________________________________________
dropout_137 (Dropout)        (None, 146, 42)           0         
_________________________________________________________________
max_pooling1d_137 (MaxPoolin (None, 73, 42)            0         
_________________________________________________________________
flatten_137 (Flatten)        (None, 3066)              0         
_________________________________________________________________
dense_137 (Dense)            (None, 2)                 6134      
=================================================================
Total params: 9,656
Trainable params: 9,656
Non-trainable params: 0
_________________________________________________________________
[1.302449e-04 9.998697e-01]          ==     [0. 1.]
[9.9998772e-01 1.2292593e-05]          ==     [1. 0.]
[2.2454000e-07 9.9999976e-01]          ==     [0. 1.]
[1.3545713e-05 9.9998641e-01]          ==     [0. 1.]
…
