Model: "sequential_180"
_________________________________________________________________
Layer (type)                 Output Shape              Param #   
=================================================================
conv1d_360 (Conv1D)          (None, 148, 12)           228       
_________________________________________________________________
conv1d_361 (Conv1D)          (None, 146, 24)           888       
_________________________________________________________________
dropout_180 (Dropout)        (None, 146, 24)           0         
_________________________________________________________________
max_pooling1d_180 (MaxPoolin (None, 73, 24)            0         
_________________________________________________________________
flatten_180 (Flatten)        (None, 1752)              0         
_________________________________________________________________
dense_180 (Dense)            (None, 2)                 3506      
=================================================================
Total params: 4,622
Trainable params: 4,622
Non-trainable params: 0
_________________________________________________________________
[0.00471644 0.99528354]          ==     [0. 1.]
[9.9972123e-01 2.7872343e-04]          ==     [1. 0.]
[8.868460e-05 9.999113e-01]          ==     [0. 1.]
[0.00421156 0.9957884 ]          ==     [0. 1.]
…
