Model: "sequential_115"
_________________________________________________________________
Layer (type)                 Output Shape              Param #   
=================================================================
conv1d_230 (Conv1D)          (None, 148, 30)           570       
_________________________________________________________________
conv1d_231 (Conv1D)          (None, 146, 36)           3276      
_________________________________________________________________
dropout_115 (Dropout)        (None, 146, 36)           0         
_________________________________________________________________
max_pooling1d_115 (MaxPoolin (None, 73, 36)            0         
_________________________________________________________________
flatten_115 (Flatten)        (None, 2628)              0         
_________________________________________________________________
dense_115 (Dense)            (None, 2)                 5258      
=================================================================
Total params: 9,104
Trainable params: 9,104
Non-trainable params: 0
_________________________________________________________________
[5.376898e-04 9.994623e-01]          ==     [0. 1.]
[9.9991465e-01 8.5311018e-05]          ==     [1. 0.]
[1.4994202e-05 9.9998498e-01]          ==     [0. 1.]
[9.624492e-04 9.990376e-01]          ==     [0. 1.]
…
