Model: "sequential_93"
_________________________________________________________________
Layer (type)                 Output Shape              Param #   
=================================================================
conv1d_186 (Conv1D)          (None, 148, 36)           684       
_________________________________________________________________
conv1d_187 (Conv1D)          (None, 146, 42)           4578      
_________________________________________________________________
dropout_93 (Dropout)         (None, 146, 42)           0         
_________________________________________________________________
max_pooling1d_93 (MaxPooling (None, 73, 42)            0         
_________________________________________________________________
flatten_93 (Flatten)         (None, 3066)              0         
_________________________________________________________________
dense_93 (Dense)             (None, 2)                 6134      
=================================================================
Total params: 11,396
Trainable params: 11,396
Non-trainable params: 0
_________________________________________________________________
[7.533199e-04 9.992467e-01]          ==     [0. 1.]
[9.999511e-01 4.884758e-05]          ==     [1. 0.]
[1.0668932e-05 9.9998939e-01]          ==     [0. 1.]
[9.9261895e-05 9.9990070e-01]          ==     [0. 1.]
…
