Model: "sequential_161"
_________________________________________________________________
Layer (type)                 Output Shape              Param #   
=================================================================
conv1d_322 (Conv1D)          (None, 148, 18)           342       
_________________________________________________________________
conv1d_323 (Conv1D)          (None, 146, 18)           990       
_________________________________________________________________
dropout_161 (Dropout)        (None, 146, 18)           0         
_________________________________________________________________
max_pooling1d_161 (MaxPoolin (None, 73, 18)            0         
_________________________________________________________________
flatten_161 (Flatten)        (None, 1314)              0         
_________________________________________________________________
dense_161 (Dense)            (None, 2)                 2630      
=================================================================
Total params: 3,962
Trainable params: 3,962
Non-trainable params: 0
_________________________________________________________________
[0.00194779 0.99805224]          ==     [0. 1.]
[9.9996316e-01 3.6811009e-05]          ==     [1. 0.]
[2.442595e-06 9.999976e-01]          ==     [0. 1.]
[0.00249764 0.9975024 ]          ==     [0. 1.]
…
