Model: "sequential_176"
_________________________________________________________________
Layer (type)                 Output Shape              Param #   
=================================================================
conv1d_352 (Conv1D)          (None, 148, 12)           228       
_________________________________________________________________
conv1d_353 (Conv1D)          (None, 146, 30)           1110      
_________________________________________________________________
dropout_176 (Dropout)        (None, 146, 30)           0         
_________________________________________________________________
max_pooling1d_176 (MaxPoolin (None, 73, 30)            0         
_________________________________________________________________
flatten_176 (Flatten)        (None, 2190)              0         
_________________________________________________________________
dense_176 (Dense)            (None, 2)                 4382      
=================================================================
Total params: 5,720
Trainable params: 5,720
Non-trainable params: 0
_________________________________________________________________
[0.08713645 0.91286355]          ==     [0. 1.]
[0.99501485 0.00498519]          ==     [1. 0.]
[1.9740626e-04 9.9980265e-01]          ==     [0. 1.]
[0.00867532 0.99132466]          ==     [0. 1.]
…
