Model: "sequential_83"
_________________________________________________________________
Layer (type)                 Output Shape              Param #   
=================================================================
conv1d_166 (Conv1D)          (None, 148, 42)           798       
_________________________________________________________________
conv1d_167 (Conv1D)          (None, 146, 18)           2286      
_________________________________________________________________
dropout_83 (Dropout)         (None, 146, 18)           0         
_________________________________________________________________
max_pooling1d_83 (MaxPooling (None, 73, 18)            0         
_________________________________________________________________
flatten_83 (Flatten)         (None, 1314)              0         
_________________________________________________________________
dense_83 (Dense)             (None, 2)                 2630      
=================================================================
Total params: 5,714
Trainable params: 5,714
Non-trainable params: 0
_________________________________________________________________
[2.0897387e-05 9.9997914e-01]          ==     [0. 1.]
[9.999745e-01 2.546485e-05]          ==     [1. 0.]
[5.1980237e-06 9.9999475e-01]          ==     [0. 1.]
[1.9817929e-04 9.9980181e-01]          ==     [0. 1.]
…
