Model: "sequential_147"
_________________________________________________________________
Layer (type)                 Output Shape              Param #   
=================================================================
conv1d_294 (Conv1D)          (None, 148, 18)           342       
_________________________________________________________________
conv1d_295 (Conv1D)          (None, 146, 48)           2640      
_________________________________________________________________
dropout_147 (Dropout)        (None, 146, 48)           0         
_________________________________________________________________
max_pooling1d_147 (MaxPoolin (None, 73, 48)            0         
_________________________________________________________________
flatten_147 (Flatten)        (None, 3504)              0         
_________________________________________________________________
dense_147 (Dense)            (None, 2)                 7010      
=================================================================
Total params: 9,992
Trainable params: 9,992
Non-trainable params: 0
_________________________________________________________________
[0.00191188 0.99808806]          ==     [0. 1.]
[9.9997747e-01 2.2475419e-05]          ==     [1. 0.]
[3.7203286e-08 1.0000000e+00]          ==     [0. 1.]
[3.9924103e-05 9.9996006e-01]          ==     [0. 1.]
…
