Model: "sequential_39"
_________________________________________________________________
Layer (type)                 Output Shape              Param #   
=================================================================
conv1d_78 (Conv1D)           (None, 148, 48)           912       
_________________________________________________________________
conv1d_79 (Conv1D)           (None, 146, 42)           6090      
_________________________________________________________________
dropout_39 (Dropout)         (None, 146, 42)           0         
_________________________________________________________________
max_pooling1d_39 (MaxPooling (None, 73, 42)            0         
_________________________________________________________________
flatten_39 (Flatten)         (None, 3066)              0         
_________________________________________________________________
dense_39 (Dense)             (None, 2)                 6134      
=================================================================
Total params: 13,136
Trainable params: 13,136
Non-trainable params: 0
_________________________________________________________________
[1.9994081e-04 9.9980003e-01]          ==     [0. 1.]
[9.999993e-01 7.455398e-07]          ==     [1. 0.]
[8.091775e-09 1.000000e+00]          ==     [0. 1.]
[3.0571424e-05 9.9996948e-01]          ==     [0. 1.]
…
