Model: "sequential_152"
_________________________________________________________________
Layer (type)                 Output Shape              Param #   
=================================================================
conv1d_304 (Conv1D)          (None, 148, 18)           342       
_________________________________________________________________
conv1d_305 (Conv1D)          (None, 146, 42)           2310      
_________________________________________________________________
dropout_152 (Dropout)        (None, 146, 42)           0         
_________________________________________________________________
max_pooling1d_152 (MaxPoolin (None, 73, 42)            0         
_________________________________________________________________
flatten_152 (Flatten)        (None, 3066)              0         
_________________________________________________________________
dense_152 (Dense)            (None, 2)                 6134      
=================================================================
Total params: 8,786
Trainable params: 8,786
Non-trainable params: 0
_________________________________________________________________
[0.20232002 0.79767996]          ==     [0. 1.]
[0.9966723  0.00332772]          ==     [1. 0.]
[0.0023683  0.99763167]          ==     [0. 1.]
[0.02824248 0.9717575 ]          ==     [0. 1.]
…
