Model: "sequential_94"
_________________________________________________________________
Layer (type)                 Output Shape              Param #   
=================================================================
conv1d_188 (Conv1D)          (None, 148, 36)           684       
_________________________________________________________________
conv1d_189 (Conv1D)          (None, 146, 36)           3924      
_________________________________________________________________
dropout_94 (Dropout)         (None, 146, 36)           0         
_________________________________________________________________
max_pooling1d_94 (MaxPooling (None, 73, 36)            0         
_________________________________________________________________
flatten_94 (Flatten)         (None, 2628)              0         
_________________________________________________________________
dense_94 (Dense)             (None, 2)                 5258      
=================================================================
Total params: 9,866
Trainable params: 9,866
Non-trainable params: 0
_________________________________________________________________
[0.00175311 0.9982469 ]          ==     [0. 1.]
[9.999913e-01 8.665843e-06]          ==     [1. 0.]
[6.955759e-06 9.999931e-01]          ==     [0. 1.]
[7.825366e-05 9.999218e-01]          ==     [0. 1.]
…
