Model: "sequential_52"
_________________________________________________________________
Layer (type)                 Output Shape              Param #   
=================================================================
conv1d_104 (Conv1D)          (None, 148, 48)           912       
_________________________________________________________________
conv1d_105 (Conv1D)          (None, 146, 12)           1740      
_________________________________________________________________
dropout_52 (Dropout)         (None, 146, 12)           0         
_________________________________________________________________
max_pooling1d_52 (MaxPooling (None, 73, 12)            0         
_________________________________________________________________
flatten_52 (Flatten)         (None, 876)               0         
_________________________________________________________________
dense_52 (Dense)             (None, 2)                 1754      
=================================================================
Total params: 4,406
Trainable params: 4,406
Non-trainable params: 0
_________________________________________________________________
[8.2078256e-04 9.9917918e-01]          ==     [0. 1.]
[9.999913e-01 8.701959e-06]          ==     [1. 0.]
[5.8449496e-06 9.9999416e-01]          ==     [0. 1.]
[0.00402406 0.9959759 ]          ==     [0. 1.]
…
