Model: "sequential_49"
_________________________________________________________________
Layer (type)                 Output Shape              Param #   
=================================================================
conv1d_98 (Conv1D)           (None, 148, 48)           912       
_________________________________________________________________
conv1d_99 (Conv1D)           (None, 146, 18)           2610      
_________________________________________________________________
dropout_49 (Dropout)         (None, 146, 18)           0         
_________________________________________________________________
max_pooling1d_49 (MaxPooling (None, 73, 18)            0         
_________________________________________________________________
flatten_49 (Flatten)         (None, 1314)              0         
_________________________________________________________________
dense_49 (Dense)             (None, 2)                 2630      
=================================================================
Total params: 6,152
Trainable params: 6,152
Non-trainable params: 0
_________________________________________________________________
[1.7896864e-05 9.9998212e-01]          ==     [0. 1.]
[9.999635e-01 3.646803e-05]          ==     [1. 0.]
[2.1360827e-06 9.9999785e-01]          ==     [0. 1.]
[1.5446485e-05 9.9998450e-01]          ==     [0. 1.]
…
