Model: "sequential_97"
_________________________________________________________________
Layer (type)                 Output Shape              Param #   
=================================================================
conv1d_194 (Conv1D)          (None, 148, 36)           684       
_________________________________________________________________
conv1d_195 (Conv1D)          (None, 146, 30)           3270      
_________________________________________________________________
dropout_97 (Dropout)         (None, 146, 30)           0         
_________________________________________________________________
max_pooling1d_97 (MaxPooling (None, 73, 30)            0         
_________________________________________________________________
flatten_97 (Flatten)         (None, 2190)              0         
_________________________________________________________________
dense_97 (Dense)             (None, 2)                 4382      
=================================================================
Total params: 8,336
Trainable params: 8,336
Non-trainable params: 0
_________________________________________________________________
[7.794292e-04 9.992206e-01]          ==     [0. 1.]
[9.9999952e-01 4.8984856e-07]          ==     [1. 0.]
[6.2402006e-07 9.9999940e-01]          ==     [0. 1.]
[0.0013219 0.998678 ]          ==     [0. 1.]
…
