Model: "sequential_43"
_________________________________________________________________
Layer (type)                 Output Shape              Param #   
=================================================================
conv1d_86 (Conv1D)           (None, 148, 48)           912       
_________________________________________________________________
conv1d_87 (Conv1D)           (None, 146, 30)           4350      
_________________________________________________________________
dropout_43 (Dropout)         (None, 146, 30)           0         
_________________________________________________________________
max_pooling1d_43 (MaxPooling (None, 73, 30)            0         
_________________________________________________________________
flatten_43 (Flatten)         (None, 2190)              0         
_________________________________________________________________
dense_43 (Dense)             (None, 2)                 4382      
=================================================================
Total params: 9,644
Trainable params: 9,644
Non-trainable params: 0
_________________________________________________________________
[7.4943644e-04 9.9925059e-01]          ==     [0. 1.]
[0.99156123 0.00843879]          ==     [1. 0.]
[6.200861e-06 9.999938e-01]          ==     [0. 1.]
[5.4442513e-05 9.9994552e-01]          ==     [0. 1.]
…
