Model: "sequential_75"
_________________________________________________________________
Layer (type)                 Output Shape              Param #   
=================================================================
conv1d_150 (Conv1D)          (None, 148, 42)           798       
_________________________________________________________________
conv1d_151 (Conv1D)          (None, 146, 42)           5334      
_________________________________________________________________
dropout_75 (Dropout)         (None, 146, 42)           0         
_________________________________________________________________
max_pooling1d_75 (MaxPooling (None, 73, 42)            0         
_________________________________________________________________
flatten_75 (Flatten)         (None, 3066)              0         
_________________________________________________________________
dense_75 (Dense)             (None, 2)                 6134      
=================================================================
Total params: 12,266
Trainable params: 12,266
Non-trainable params: 0
_________________________________________________________________
[6.952967e-06 9.999931e-01]          ==     [0. 1.]
[0.9884034  0.01159667]          ==     [1. 0.]
[4.317896e-08 1.000000e+00]          ==     [0. 1.]
[2.1574278e-06 9.9999785e-01]          ==     [0. 1.]
…
