Model: "sequential_146"
_________________________________________________________________
Layer (type)                 Output Shape              Param #   
=================================================================
conv1d_292 (Conv1D)          (None, 148, 24)           456       
_________________________________________________________________
conv1d_293 (Conv1D)          (None, 146, 12)           876       
_________________________________________________________________
dropout_146 (Dropout)        (None, 146, 12)           0         
_________________________________________________________________
max_pooling1d_146 (MaxPoolin (None, 73, 12)            0         
_________________________________________________________________
flatten_146 (Flatten)        (None, 876)               0         
_________________________________________________________________
dense_146 (Dense)            (None, 2)                 1754      
=================================================================
Total params: 3,086
Trainable params: 3,086
Non-trainable params: 0
_________________________________________________________________
[0.02208542 0.9779146 ]          ==     [0. 1.]
[0.99818796 0.001812  ]          ==     [1. 0.]
[2.5706083e-04 9.9974293e-01]          ==     [0. 1.]
[1.1619346e-04 9.9988377e-01]          ==     [0. 1.]
…
