Model: "sequential_186"
_________________________________________________________________
Layer (type)                 Output Shape              Param #   
=================================================================
conv1d_372 (Conv1D)          (None, 148, 12)           228       
_________________________________________________________________
conv1d_373 (Conv1D)          (None, 146, 18)           666       
_________________________________________________________________
dropout_186 (Dropout)        (None, 146, 18)           0         
_________________________________________________________________
max_pooling1d_186 (MaxPoolin (None, 73, 18)            0         
_________________________________________________________________
flatten_186 (Flatten)        (None, 1314)              0         
_________________________________________________________________
dense_186 (Dense)            (None, 2)                 2630      
=================================================================
Total params: 3,524
Trainable params: 3,524
Non-trainable params: 0
_________________________________________________________________
[0.02918855 0.9708114 ]          ==     [0. 1.]
[0.99892503 0.00107492]          ==     [1. 0.]
[4.1115534e-04 9.9958891e-01]          ==     [0. 1.]
[0.03230716 0.96769285]          ==     [0. 1.]
…
