Model: "sequential_135"
_________________________________________________________________
Layer (type)                 Output Shape              Param #   
=================================================================
conv1d_270 (Conv1D)          (None, 148, 24)           456       
_________________________________________________________________
conv1d_271 (Conv1D)          (None, 146, 48)           3504      
_________________________________________________________________
dropout_135 (Dropout)        (None, 146, 48)           0         
_________________________________________________________________
max_pooling1d_135 (MaxPoolin (None, 73, 48)            0         
_________________________________________________________________
flatten_135 (Flatten)        (None, 3504)              0         
_________________________________________________________________
dense_135 (Dense)            (None, 2)                 7010      
=================================================================
Total params: 10,970
Trainable params: 10,970
Non-trainable params: 0
_________________________________________________________________
[0.00412151 0.99587846]          ==     [0. 1.]
[9.9986780e-01 1.3214575e-04]          ==     [1. 0.]
[2.3351517e-04 9.9976653e-01]          ==     [0. 1.]
[0.00540943 0.99459064]          ==     [0. 1.]
…
