Model: "sequential_79"
_________________________________________________________________
Layer (type)                 Output Shape              Param #   
=================================================================
conv1d_158 (Conv1D)          (None, 148, 42)           798       
_________________________________________________________________
conv1d_159 (Conv1D)          (None, 146, 30)           3810      
_________________________________________________________________
dropout_79 (Dropout)         (None, 146, 30)           0         
_________________________________________________________________
max_pooling1d_79 (MaxPooling (None, 73, 30)            0         
_________________________________________________________________
flatten_79 (Flatten)         (None, 2190)              0         
_________________________________________________________________
dense_79 (Dense)             (None, 2)                 4382      
=================================================================
Total params: 8,990
Trainable params: 8,990
Non-trainable params: 0
_________________________________________________________________
[0.00420077 0.99579924]          ==     [0. 1.]
[9.9997342e-01 2.6540481e-05]          ==     [1. 0.]
[2.5587096e-05 9.9997437e-01]          ==     [0. 1.]
[1.0817378e-04 9.9989176e-01]          ==     [0. 1.]
…
