Model: "sequential_81"
_________________________________________________________________
Layer (type)                 Output Shape              Param #   
=================================================================
conv1d_162 (Conv1D)          (None, 148, 42)           798       
_________________________________________________________________
conv1d_163 (Conv1D)          (None, 146, 24)           3048      
_________________________________________________________________
dropout_81 (Dropout)         (None, 146, 24)           0         
_________________________________________________________________
max_pooling1d_81 (MaxPooling (None, 73, 24)            0         
_________________________________________________________________
flatten_81 (Flatten)         (None, 1752)              0         
_________________________________________________________________
dense_81 (Dense)             (None, 2)                 3506      
=================================================================
Total params: 7,352
Trainable params: 7,352
Non-trainable params: 0
_________________________________________________________________
[0.00182197 0.998178  ]          ==     [0. 1.]
[9.9971968e-01 2.8033496e-04]          ==     [1. 0.]
[1.3545412e-04 9.9986458e-01]          ==     [0. 1.]
[0.00127427 0.9987257 ]          ==     [0. 1.]
…
