Model: "sequential_47"
_________________________________________________________________
Layer (type)                 Output Shape              Param #   
=================================================================
conv1d_94 (Conv1D)           (None, 148, 48)           912       
_________________________________________________________________
conv1d_95 (Conv1D)           (None, 146, 24)           3480      
_________________________________________________________________
dropout_47 (Dropout)         (None, 146, 24)           0         
_________________________________________________________________
max_pooling1d_47 (MaxPooling (None, 73, 24)            0         
_________________________________________________________________
flatten_47 (Flatten)         (None, 1752)              0         
_________________________________________________________________
dense_47 (Dense)             (None, 2)                 3506      
=================================================================
Total params: 7,898
Trainable params: 7,898
Non-trainable params: 0
_________________________________________________________________
[0.00183983 0.9981602 ]          ==     [0. 1.]
[9.9997401e-01 2.5976447e-05]          ==     [1. 0.]
[1.6093134e-05 9.9998391e-01]          ==     [0. 1.]
[0.00126554 0.9987344 ]          ==     [0. 1.]
…
