Model: "sequential_167"
_________________________________________________________________
Layer (type)                 Output Shape              Param #   
=================================================================
conv1d_334 (Conv1D)          (None, 148, 12)           228       
_________________________________________________________________
conv1d_335 (Conv1D)          (None, 146, 48)           1776      
_________________________________________________________________
dropout_167 (Dropout)        (None, 146, 48)           0         
_________________________________________________________________
max_pooling1d_167 (MaxPoolin (None, 73, 48)            0         
_________________________________________________________________
flatten_167 (Flatten)        (None, 3504)              0         
_________________________________________________________________
dense_167 (Dense)            (None, 2)                 7010      
=================================================================
Total params: 9,014
Trainable params: 9,014
Non-trainable params: 0
_________________________________________________________________
[0.02433161 0.97566843]          ==     [0. 1.]
[9.9989557e-01 1.0443308e-04]          ==     [1. 0.]
[1.3522003e-04 9.9986482e-01]          ==     [0. 1.]
[0.00343214 0.99656785]          ==     [0. 1.]
…
